…
8080/"},"id":"tA8XuyRwYb3X","executionInfo":{"status":"ok","timestamp":1628034080781,"user_tz":-540,"elapsed":263,"user":{"displayName":"김유신","photoUrl":"","userId":"02673625700761750485"}},"outputId":"68140807-bc13-4468-d4d6-e48b33581847"},"source":["model.summary()"],"execution_count":27,"outputs":[{"output_type":"stream","text":["Model: \"sequential\"\n","_________________________________________________________________\n","Layer (type)                 Output Shape              Param #   \n","=================================================================\n","conv2d (Conv2D)              (None, 28, 28, 32)        320       \n","_________________________________________________________________\n","max_pooling2d (MaxPooling2D) (None, 14, 14, 32)        0         \n","_________________________________________________________________\n","conv2d_1 (Conv2D)            (None, 14, 14, 64)        18496     \n","_________________________________________________________________\n","max_pooling2d_1 (MaxPooling2 (None, 7, 7, 64)          0         \n","_________________________________________________________________\n","flatten (Flatten)            (None, 3136)              0         \n","_________________________________________________________________\n","dense (Dense)                (None, 100)               313700    \n","_________________________________________________________________\n","dropout (Dropout)            (None, 100)               0         \n","_________________________________________________________________\n","dense_1 (Dense)              (None, 10)                1010      \n","=================================================================\n","Total params: 333,526\n","Trainable params: 333,526\n","Non-trainable params: 0\n","_________________________________________________________________\n"],"name":"stdout"}]},{"cell_type":"code","metadata":{"id":"RGbw9zRTZJ1x","executionInfo":{"status":"ok","timestamp":1628034130013,"user_tz":-540,"elapsed":256,"user":{
…
